Deep learning models/CNN/CNN2_SGDlr0.001_BCEL_EP10000_75%.pth (torch, 22879 bytes, 25 tensors)

0.weight f4 [16, 3, 3, 3]
00000000: 64f8 bcbd 22e1 233d 4438 b73d 87a0 83bd
00000010: 107f 04be 34f4 083d e022 e6bd 5342 16be
00000020: 4799 c43d fab9 2dbd 29db 3e3e ba73 273e
00000030: 7a11 783d 161b a93d d2f6 be3d 4546 e2bc
00000040: 8a82 85bd 1ff3 ee3b 5dc8 b03d ffe3 233e
00000050: a9b1 c1bd 614f bebd 6863 17bd 6097 9ebd
00000060: 9bc7 9bbb 0087 ea3d 84c4 073e 67b4 cc3d
00000070: 45a9 2bbe 522d 15be 0680 9cbd 6c6b 41bd
00000080: a7aa 3b3d 77c5 f1bd 2868 443c 5551 41bd
00000090: 2fd5 4bbe 7683 e0bd 3470 133e 3c85 4fbe
000000a0: 7484 713e 40d6 8f3d 4054 f2bd 1b8b 763e
000000b0: 4803 20bd d16b 1f3e ca9b 373e ea4f 8cbe
000000c0: d083 273e 075b cf3c d160 d33c 4539 df3d
000000d0: 9e24 083e b77f 4cbe 1eaf 05bd cff9 3b3e
000000e0: 813e f53d 9654 b9bc 57ed 52be 1d57 8bbc
000000f0: 9a16 19be a66d 073e 5830 04be 84de 82bd
00000100: a9b5 a5bd 40c2 7b3d 53de 3b3e 3317 a33c
00000110: c2b9 ee3d 4714 fd3d 43fd 233e c482 3fbd
00000120: 90eb a4bd 2fff 4b3d f92b d2bc 3267 a93d
00000130: c94b 1cbd d33b fbbd 17cc 5d3d 4b1c 083d
00000140: 995c c03d 5e90 2f3e 1427 f93d bc37 423e
00000150: 43a6 b9bc 2b79 30be 2bf6 06be f3f6 02be
00000160: fef9 1dbe 2a65 bcbd 8283 3cbe 4344 0dbe
00000170: b012 cabd 002a 27be c85c bbbd 8683 2c3e
00000180: d73b 473e d8d6 7dbd 897a 90bd 0d13 0e3e
00000190: b401 4ebd d372 adbd e451 253e 5769 1bbe
000001a0: 1dbf 693d 3a76 473e 9466 e43b 56eb 5c3c
000001b0: 23e4 f0bd 04d2 62bc 7185 053d 3e1d 743d
000001c0: 0e8b 9a3d 04fe 4e3e 4ca0 ffbd b6d3 f03c
000001d0: 5027 04bc 6179 1fbe 049d 883c 0ba4 0cbe
000001e0: a284 0a3e 53f6 533d 388c b1bd 0b3c 5b3d
000001f0: 6791 45be 8e52 a6bd 563b 41bc 88a3 0bbe
00000200: fb67 86bd fc4b 3f3a 559f 463e 9c95 7b3e
00000210: 3e20 be3d 0621 1bbe d15f 2abe c483 383e
00000220: 9727 a03d b35a b83c 1b74 163d ece2 12be
00000230: 2b7c 64bd 8a65 663e 72d8 10bd 3f7a 7a3c
00000240: c0c3 25be 3920 0fbe 8813 0c3d a82f ebbd
00000250: fc02 91bc 02f8 ab3d e0b0 25be fc11 9c3d
00000260: 00d0 c6bd 3f40 13be f68f c43d 6cb2 2d3e
00000270: b0ce acbd 83b2 9bbd 1945 19be 8c4f e9bd
00000280: 4af5 e2bd 362f 8dbc 0d80 ab3d ae23 6abe
00000290: 32c2 0a3e cab4 ff3d 50da 3bbe caaa 1fbe
000002a0: b33d da3d 7a9b 08bd d5b7 c0bb 6263 09be
000002b0: bfcb 3f3e 994e f8bd 0ea8 423e 9588 6d3d
000002c0: ee99 a23c 9b3d 383e 429c 93bd 9d97 f5bd
000002d0: d68d a0bd 185a 503e a98e 2dbe b836 a53c
000002e0: 12d0 52be 1164 bc3d 6169 723d 413e c1bd
000002f0: 9974 8f3d f187 863c cb08 d73d 7752 3ebe
00000300: 9769 27bd f399 663d 270e 1f3e ce04 163e
00000310: 5330 28be af7c cc3d eaf6 08bd 518f b1bd
00000320: 265f 34be 8bd2 84bd b98f 0f3e fdf4 6f3d
00000330: 4288 00be 66d1 213d 81d9 65bd 3f4f 0e3e
00000340: b46e 56be e8f9 10bc c450 9fbe e54e dcbd
00000350: b8c4 c93d f4a9 fb3d 6666 6cbb 9ed8 663e
00000360: d277 183d b170 e63d 7bff 223e 6321 1e3e
00000370: a46c e4bd 54f3 343e a358 fb3d a604 a9bd
00000380: 8ec4 b3bd f70f 0bbe 298f 4b3d b6b7 fbbd
00000390: 3f44 e23d d37b 8b3d b05e 24be 560e 943d
000003a0: 925f e5bb ccee e33d 0d6a 113e 2ee8 36be
000003b0: 45e8 603e 85ef 393e acb8 c93d 52da 1ebe
000003c0: 8b13 68bd 95ce 4fbd 6095 1abb 630f 5d3d
000003d0: 18d2 4e3d 14c5 0a3e 5c8d dcbd 5357 083d
000003e0: 4320 bf3d 56de 0ebe 926d 26be 968b d3bc
000003f0: de86 ce3d 768c 5fbe d4c6 89be a431 063e
-0.09227064 0.040009625 0.08946279 -0.064271025 -0.12939095 0.033436015 -0.11237121 -0.14673738
0.09599548 -0.04241369 0.1863829 0.1635274 0.060563542 0.08257119 0.09324421 -0.027621398
-0.06519039 0.007292166 0.08631966 0.16004942 -0.09457714 -0.09292484 -0.036960036 -0.07743716
-0.0047540194 0.114515305 0.13258559 0.099953465 -0.1676379 -0.1456807 -0.07641606 -0.047221586
0.045817044 -0.118052416 0.011987723 -0.047196705 -0.19905542 -0.10962574 0.14398271 -0.20265669
0.23585683 0.07023287 -0.11832476 0.24076502 -0.03906563 0.15568472 0.17930523 -0.2740472
0.16358876 0.02531196 0.025803002 0.10899595 0.13295218 -0.19970594 -0.032637708 0.18357013
0.11974812 -0.022623342 -0.2059835 -0.017009312 -0.14950028 0.13225421 -0.12909067 -0.06390098
-0.080912896 0.061464548 0.18346529 0.019908523 0.11656524 0.12357383 0.1601458 -0.046755567
-0.080527425 0.04980391 -0.025655733 0.08271636 -0.03815821 -0.1226727 0.054149713 0.033230107
0.093926616 0.17144915 0.12165657 0.18966573 -0.022662288 -0.17233722 -0.13179843 -0.12789516
-0.15427396 -0.09198983 -0.18409541 -0.13795571 -0.098668456 -0.16324615 -0.09148556 0.16847047
0.19456421 -0.06197247 -0.07054622 0.13874455 -0.050294593 -0.084691666 0.1614452 -0.15176903
0.057067025 0.19478694 0.006970236 0.013483843 -0.117622636 -0.013844017 0.032597963 0.0595982
0.07546054 0.20214087 -0.12481746 0.029397827 -0.008066013 -0.15573646 0.016676433 -0.13734452
0.13527158 0.051748585 -0.08669323 0.05352406 -0.19293748 -0.08121215 -0.011793932 -0.13636601
-0.065628015 0.00072973943 0.19396718 0.2456879 0.092834935 -0.15149316 -0.16638114 0.18019015
0.07820051 0.022504186 0.03673182 -0.14344376 -0.05578248 0.22499672 -0.03536267 0.015287935
-0.16187954 -0.13977136 0.034198314 -0.11483699 -0.017701618 0.08396913 -0.16180754 0.07620618
-0.097076416 -0.14379977 0.09597771 0.16962594 -0.0843786 -0.07602408 -0.14967765 -0.113921255
-0.110819414 -0.017234426 0.08374033 -0.22865173 0.13550642 0.12485655 -0.18344998 -0.15592495
0.106562994 -0.0333514 -0.0058812895 -0.13416818 0.18730067 -0.12124366 0.1900942 0.057991583
0.01984879 0.1799225 -0.07207538 -0.119918086 -0.07839553 0.20346868 -0.16948952 0.020167693
-0.20587185 0.09198774 0.05918253 -0.09435702 0.07004661 0.016422244 0.10499724 -0.18586145
-0.040872183 0.05629916 0.15532742 0.1465027 -0.16424684 0.09984719 -0.0334386 -0.086699136
-0.17614421 -0.064854704 0.1401967 0.05858325 -0.12551978 0.03950634 -0.05611563 0.13897417
-0.20940667 -0.008848645 -0.31116307 -0.107572354 0.09851974 0.12288275 -0.0036071776 0.2254357
0.037223645 0.11251963 0.1591777 0.15442424 -0.11153534 0.17670947 0.122727655 -0.0825284
-0.08777724 -0.13580309 0.049697075 -0.122908995 0.11048173 0.06810727 -0.16051745 0.07229297
-0.0069999183 0.11129531 0.14200611 -0.17862007 0.21963604 0.18157776 0.098496765 -0.1551297
-0.056659263 -0.05073412 -0.002358757 0.053969752 0.05049333 0.13551742 -0.1076915 0.033286404
0.09332325 -0.13952002 -0.16252735 -0.025823396 0.100843176 -0.21830925 -0.26909506 0.13104874

0.bias f4 [16]
00000000: 43ea 18be c575 2e3e e33a 203e a6ab b63d
00000010: 8d0d 3c3e b8f1 9fbd 3027 08bd 563a 953d
00000020: 7c3e 02bd e8af 1abd bae3 22be 74c7 533d
00000030: 2d30 eebd 4055 e53b 2b23 403e b0a4 72bd
-0.14933114 0.17037113 0.15647464 0.08919458 0.18364544 -0.07809776 -0.033240497 0.07286517
-0.03179787 -0.037765414 -0.15907183 0.051703885 -0.116302826 0.006998688 0.18763416 -0.05923909

1.weight f4 [16]
00000000: 9a40 803f 1b97 813f c065 7f3f 5d81 803f
00000010: ad49 833f 0081 823f 6993 7a3f 3d72 773f
00000020: ed14 7a3f 547f 823f 37c4 803f 8e01 803f
00000030: 60a3 803f 8b1f 803f 7e47 7d3f b8bc 7d3f
1.0019715 1.0124239 0.99764633 1.0039479 1.0256859 1.0195618 0.9788118 0.9665869
0.9768818 1.0195107 1.005988 1.0000474 1.0049858 1.0009626 0.98937213 0.99116087

1.bias f4 [16]
00000000: aa00 6ebc fbb1 09bd 3c3a 57bc e969 8cbc
00000010: 0cc2 a83b 1947 51b9 0a3c cc3c df3d 17bc
00000020: 090e e3bb 8b5e 1c3b 10fd 753b 8c80 353c
00000030: f2a8 d2bc e856 52bc 44a8 9abc ff97 0fbc
-0.0145265255 -0.033617 -0.013136443 -0.017140346 0.0051500853 -0.00019958279 0.024930973 -0.00923106
-0.0069291634 0.0023860063 0.003753487 0.011078011 -0.025715325 -0.012838103 -0.018879063 -0.008764266

1.running_mean f4 [16]
00000000: 6782 4d42 0076 04c1 b22c 5942 796e 2cc2
00000010: 166d f3c1 629e c6c2 1d2c a9c1 b052 a9c1
00000020: 910d eb42 9728 8942 bf50 aec1 53a8 47c2
00000030: 48b3 2a42 b19a 24c3 70dc 5143 9771 c542
51.377346 -8.278809 54.293648 -43.107883 -30.428265 -99.30934 -21.14654 -21.165375
117.5265 68.57928 -21.789427 -49.91438 42.67508 -164.60426 209.86108 98.721855

1.running_var f4 [16]
00000000: 0091 d544 59e6 3544 b1dc db44 0305 1245
00000010: a753 a144 fe16 4645 d7bc ae43 9093 4a44
00000020: 213f 0345 8f62 8644 da11 0f44 b02f 2444
00000030: 183b 1045 767b 0646 7c1f 1a46 efcf f644
1708.5312 727.5992 1758.8966 2336.3132 1290.6141 3169.437 349.4753 810.30566
2099.9456 1075.08 572.27893 656.7451 2307.6934 8606.865 9863.871 1974.4979

4.weight f4 [8, 16, 3, 3]
00000000: 66e3 80bc 3111 903d 7909 68bc 8d53 b0bc
00000010: 8e20 ad3d 2f88 0abd 4755 21bd 5eaf 56bd
00000020: a431 91bd a285 883c c6e4 39bd eb4b 8b3d
00000030: 6e2a d73d ba37 59bd c9ba a7bd 8da7 b2bc
00000040: ebf2 c3bd d21e d0bc c98d 27bd 7b58 ec3c
00000050: a872 88bd b5fb 41bd 9a31 9cbd bcbd ae3c
00000060: e132 6cbc 8aef 42bd 4fdc 903c c726 9d3d
00000070: 9299 4c3d 4db8 cfbd 2cd1 06be c625 42bc
00000080: 4273 06bc 7862 603d 1fc0 3f3c 1a1c 4f3d
00000090: 41f4 eabd f62e b2bd 5da5 a5bc c898 3d3d
000000a0: 8aca 3d3d b1d9 a4bd f9e7 293d 2319 abbc
000000b0: 34c7 383d e0f9 2b3d baac f53c 0ca0 f1bd
000000c0: 1c38 a53d 2c13 593d 2ad8 febc 8ba4 073e
000000d0: 46a9 e93d b1b1 723d d607 b63c 817b 2bbc
000000e0: dfba b73c 13e4 b63d c9fc f6bd dc8a a0bd
000000f0: 2c0d 28bd a76d 38bc adad bdba 676c 4fbc
00000100: e9a7 97bd abc5 c23d 9284 643c e0a5 82bd
00000110: 6bf5 843d afdb 7a3b 69c8 663b d5aa b23c
00000120: af6e 43ba 2d63 8fbd fbf5 f53c f6f6 0bbc
00000130: e3e6 f2bc 8a2e d73b bd09 14bd 48ed 4abd
00000140: 8a38 54bd 4f19 b23c 0369 55bd acf0 fa3c
00000150: c361 6d3d bf22 81bd bce7 2abd a1c5 273d
00000160: bba1 b53d 8520 b93c 645f a1bd f09d c5bb
00000170: a545 f13b 8486 073e 8589 97bd 3376 a0bd
00000180: 1649 1b3d 9293 6dbd 50c3 413d b546 9ebb
00000190: da64 823d 6a0a 9dbd 1d5b 4a3c 7b3b 87bd
000001a0: f7fd 7c3c c18c 02be 5431 3bbd c557 febd
000001b0: a545 b0ba 544b 563d b595 e83b f047 65bd
000001c0: 2fe8 9bbb e567 fabc eaa1 48bd 2510 343d
000001d0: 3b04 33bd d05f 3c3d 6dd9 10bc cf5f 56bd
000001e0: 96fd 2f3d 4fb5 263d a287 873c 8a97 0cbd
000001f0: e0d8 763d 05b3 49bc 4f6d 48bd a501 3ebd
00000200: d325 813d ceb9 c03b 3e8a 87bc dc6e 4cbd
00000210: ca94 e2bc 2cda a3bd 40ad afbd 5bf5 8f3d
00000220: 9d8e 8e3d e635 8f3d 1b30 89bd 8657 1b3d
00000230: 9fcc 75bd 8002 3e3d 6c29 723d 2d74 523d
00000240: f5f9 373d ea05 1a3d 2ced a93b 6916 d8bb
00000250: 70b5 acbd cd7e 163c d51e 46bc aefe 083d
00000260: b730 d7bd af71 0bbd 1df3 82bd 1937 c23b
00000270: 53e6 34bd 2b9a 11be 7806 e03c 24d1 1e3e
00000280: 65ba 263d d0df 233d 3e29 38bd 9c6b 67bd
00000290: 74f4 563d 229e 2e3d 9c39 ddbd f24c 2f3d
000002a0: 2004 123e 3711 9e3c f5b5 c8bc 7a3e 2f3d
000002b0: 53ea ba3d 2fa7 da3c 6330 893c eb66 de3d
000002c0: 6821 67bd d5d7 ad3d 9053 0ebd e9cb 013e
000002d0: bb45 d83c 476b 59bd cde4 8bbc 24da 203d
000002e0: 2cd3 85ba 8efb 0ebe 939d 3ebe 40af 77bb
000002f0: b4b7 cfbc 236c 0c3e 4482 983d 28e0 8f3d
00000300: 5d9e e53b a803 613c 1a36 4abc a53e 39bd
00000310: fcb8 233b 8211 b1bc dba9 953d ed3c 9fbd
00000320: be77 953d ac13 4f3d 63ca 7d3d 4649 193c
00000330: d443 2abe e468 8a3d 4b8c aebc fee4 85bd
00000340: ac1e fd3d 914c e3bc e6f8 6c3d 6162 b23d
00000350: 9e90 8bbd c0da ddbd 7298 1a3c 6811 c6bd
00000360: 9e94 d03c df65 72bd 351e 783c e9ba f8ba
00000370: 9423 463c da7d 09bd 17bb 673d 58bc cb3c
00000380: 57b7 a0bd 5651 35bc 17b0 a83c 19fc e03c
00000390: abb3 a1bd 4402 5c38 a6e8 c13d 36d0 92bc
000003a0: 92b7 9bbc fb99 113d 10d2 cbbc a559 323d
000003b0: 65bc c53d 3646 0d3d 855d adbd 7b34 2d3e
000003c0: f0ca 82bc 09b3 c7bc 0158 03be f199 52bd
000003d0: 4d6f 5b3d d352 8bbd 9824 45bc 93f3 ba3d
000003e0: fb42 903d 387b 563d 5b42 533d cc0f 003c
000003f0: 145a c53d b6d7 52bb cdfa 5b3d 0e8c ab3c
-0.015733432 0.07034529 -0.014162415 -0.021524215 0.08453475 -0.03382128 -0.039387967 -0.052413337
-0.07089546 0.016665284 -0.04538419 0.068015896 0.1050614 -0.05303166 -0.08189923 -0.02180841
-0.09567817 -0.025405321 -0.0409067 0.028850785 -0.06662494 -0.047359187 -0.07626648 0.021330707
-0.014416427 -0.047591724 0.017683176 0.07673412 0.049951144 -0.101425745 -0.1316573 -0.011849826
-0.008206191 0.054781407 0.01170352 0.05056391 -0.11472369 -0.08700363 -0.020220453 0.04628828
0.046335734 -0.08049334 0.041480992 -0.02088601 0.04511185 0.041986346 0.029989589 -0.11798105
0.08067343 0.0529968 -0.031108934 0.13246362 0.114092395 0.05925149 0.022220533 -0.010466457
0.022427974 0.089302205 -0.12059934 -0.07838985 -0.041028187 -0.011256612 -0.0014471315 -0.0126601225
-0.07405073 0.095103584 0.013947623 -0.063792944 0.06492122 0.0038277914 0.0035214669 0.021809975
-0.0007455153 -0.07001338 0.03002452 -0.008542767 -0.029651111 0.006566827 -0.0361421 -0.049542695
-0.051811732 0.021740584 -0.0521021 0.03063234 0.05795456 -0.063054554 -0.041724905 0.040959958
0.08868738 0.022598514 -0.078795224 -0.0060307905 0.0073630386 0.13234907 -0.07399277 -0.07835045
0.037911497 -0.058002062 0.047305405 -0.0048302063 0.06366892 -0.07668002 0.012350825 -0.06603142
0.015441409 -0.12749006 -0.04570134 -0.124190845 -0.001344849 0.052317932 0.0070979246 -0.055976808
-0.004757903 -0.030567119 -0.04898254 0.04396071 -0.043705206 0.04598981 -0.008840901 -0.052337464
0.042966448 0.040700253 0.016544167 -0.034324206 0.060265422 -0.012310748 -0.04893237 -0.046388287
0.063060425 0.0058815246 -0.016545411 -0.04991041 -0.027658839 -0.08000597 -0.08577967 0.0702922
0.06960795 0.06992702 -0.066986285 0.037925266 -0.060009595 0.046389103 0.059121534 0.051380325
0.044916112 0.037603296 0.005185744 -0.0065944684 -0.08433044 0.009185505 -0.012092312 0.033446006
-0.105073385 -0.034043964 -0.063940264 0.0059269783 -0.044164967 -0.14218967 0.027346835 0.15509468
0.040705103 0.040008366 -0.044961207 -0.05649911 0.052479222 0.042631276 -0.10802004 0.04279799
0.14259386 0.019295318 -0.024500826 0.04278419 0.09126725 0.026691047 0.016746705 0.10859474
-0.056428343 0.08488432 -0.03474766 0.12675442 0.026400438 -0.053080823 -0.017076874 0.039270535
-0.0010210029 -0.13963148 -0.18614797 -0.0037793666 -0.025356151 0.13713126 0.07446721 0.07025176
0.0070074038 0.013733782 -0.012342 -0.045225758 0.0024982085 -0.021614794 0.07307788 -0.077752925
0.0729823 0.05055587 0.06196059 0.009355849 -0.16627437 0.067582875 -0.021307131 -0.065378174
0.12359366 -0.02774647 0.057854556 0.087101705 -0.06814693 -0.10832739 0.00943576 -0.09671289
0.025461491 -0.059179183 0.015143921 -0.0018976602 0.012093443 -0.033567287 0.056574907 0.024870083
-0.07847469 -0.011066755 0.020591779 0.02746396 -0.07895597 5.2454197e-05 0.09468202 -0.017921548
-0.019008432 0.035547238 -0.024880439 0.043542523 0.09655074 0.034490786 -0.08465103 0.16914551
-0.015965909 -0.024377363 -0.1282654 -0.05141634 0.05357294 -0.06802907 -0.01203265 0.09128489
0.070440255 0.052363604 0.051576953 0.007816266 0.09636322 -0.003217203 0.05370598 0.020940807

4.bias f4 [8]
00000000: 2050 123d 4129 593d bf32 85bd 0ad0 613d
00000010: a871 4cbc dfc0 9ebc 7068 893c bb7c 853d
0.035720944 0.05301786 -0.0650382 0.055130042 -0.01247827 -0.019379077 0.016773432 0.06517931

5.weight f4 [8]
00000000: a108 7e3f f46a 793f 38ff 893f 6719 7e3f
00000010: ccb8 7e3f 5be2 813f 55e4 773f 929c 7a3f
0.99231917 0.9742882 1.0781012 0.9925751 0.9950073 1.0147203 0.9683278 0.9789516

5.bias f4 [8]
00000000: c1d4 15bd 2981 93bc dacf 59bd 4417 bebc
00000010: cda9 493b 9faf 1fbd 77ea 7cbc ab44 91bc
-0.03657985 -0.018005924 -0.05317674 -0.023204453 0.0030771375 -0.038985845 -0.01543676 -0.017732939

5.running_mean f4 [8]
00000000: 360f dabe 24ad db3e 8fec 3a3f 8c95 94be
00000010: a101 423e 67dc 573e 88d8 d7be 1436 b0be
-0.4258973 0.42905533 0.7301721 -0.29020345 0.18945934 0.2108017 -0.42157388 -0.34416258

5.running_var f4 [8]
00000000: 8bca 873e 4845 2f3e 42d1 093f 095b a63e
00000010: e61a 623e ebd1 953e 2aad 1d3e becd 513e
0.26521716 0.17116272 0.5383493 0.3249133 0.22080573 0.29261717 0.15398088 0.2048864

8.weight f4 [4, 8, 3, 3]
00000000: 541f 89bd 6a7e 93bd 4960 b33d d73a 87bd
00000010: 1f29 913c d41e 47bd eeea 463d 3765 483d
00000020: 45e7 babd 67f1 45bd 6166 a83d 14a3 ffbc
00000030: d36a 373d 3e7f bbbd 0da0 8d3d f7e0 75bc
00000040: bf6e e0bc 379d 76bd 2197 ccbd 9373 563d
00000050: 0488 bbbc ebe9 ac3d 31fa 44bd fe8d 6cbd
00000060: ca75 833d 9e4d 9ebd b62b 55bd 173c 563d
00000070: 2ff0 bb3d b773 0f3d 6bb3 9e3d f17f 8f3d
00000080: bf12 183d e40c 023d 4d6a be3c 798f 0c3c
00000090: ed66 f53d 3b92 f53d e7ab b53c 677e 29bd
000000a0: 73fb 753d 76aa fbbd 609c 9e3d 0126 6e3d
000000b0: f753 6a3d 9192 43bd 669e cbbd 8edd e53d
000000c0: ded6 09bd 6fad 7ebc b62b ab3d 9968 febd
000000d0: 5680 79bd 4ad8 9ebd f10d 213d 4f09 cbbd
000000e0: 64bd 673d 819a 3b3d aa86 433d f6d6 ca3d
000000f0: 65af 0bbd 19c5 06be 0f95 183d f626 9b3c
00000100: 29b8 bc3b ed75 fcbd 6668 10bd 5332 62bd
00000110: 3690 cc3d b586 743d 27dd be3d 3de1 763d
00000120: 151a 49bd a404 0ebe dff1 ecbd 57f7 c0bd
00000130: 6a30 e63d 5ed7 6abc c3e0 233e 46bc 24bc
00000140: b0b7 38be abb5 8cbc 35bb 293d 31b6 513e
00000150: 2918 96bc 7a4d d4bd fb7a 37be 4fe4 a6bd
00000160: 1ea2 0e3e 4e71 91bd ea97 b63d d6fc 57bd
00000170: 2004 0cbd ef5f b33e a00b 5bbd 0a44 cc3d
00000180: 5954 7ebd 5c85 97be b27a 42bd 6eff a23d
00000190: 4875 1cbc b964 873d e35a c1bd 7497 ccbd
000001a0: 1133 04be 1b3e acbc 8601 9abc 75bf 76bd
000001b0: acae b2bc 4b64 47be 27fc 84bc 2f7e 85bc
000001c0: 3c14 763d 238f 463e 8b1e c73d 18c3 82bc
000001d0: 533e 6fbb b268 643d 53f5 f8bd 8f62 e53d
000001e0: 08a0 9f3b 68dd 1d3e 33ca d73d 11e4 4dbd
000001f0: f728 79bd 9063 a9bd e3ab 9eba 1eb1 e43d
00000200: 8d2a abbd 92e1 6b3d a535 7bbd 25f1 f63c
00000210: 2594 6dbd 7c18 90bc 56fa 9c3d ecb2 0b3d
00000220: 5937 73bc de02 88bc 6395 9ebd 3bd1 01bb
00000230: 41e4 6fbc a776 913d 3285 443d e956 e9bd
00000240: 222f 513c 627d 94bd b37a 033d 1d93 94bd
00000250: 5eda 4c3d 6410 d2bd cbfc a93d 4c0d 063e
00000260: cfb6 f7ba 708e b4bd 9925 b5bc 2fed a93d
00000270: cef7 d33d 7078 1abd cf8f aa3d ec5b a0bc
00000280: 5d38 d2bd a6f1 faba 2018 7f3d cbcc f03d
00000290: 954c 15be e616 1ebe f19b d5bc 210b 49bd
000002a0: 30ce 2d3d a2eb 533d 3f81 213c d383 8ebd
000002b0: 3739 d1bc d9a8 18be c8b4 cebd a708 8abc
000002c0: ef76 d23d a203 d73c 12c3 943c 51d7 bdbd
000002d0: 7b90 89bd 495f 95bd cfe6 f53d ac2b bd3d
000002e0: 391c afbd 71b7 a13d d77c ac3d 8720 22bd
000002f0: ae96 163d 8562 a9bd 583c 2dbe 4bb9 81bc
00000300: fc7c 8e3d d167 80bd 1c44 39be 431a 56ba
00000310: 7d1e 82bd e86f 673c c89c 1abd a845 1abe
00000320: 109f ac3d 42de 91bd 874e 04bd e07a d83d
00000330: 94aa a23d a2fa abbd 51cc f0bd 939f 84bd
00000340: 10ec b83c f824 083d 2bca 463d 7a78 cbbd
00000350: 1b4d b9bd 0278 0fbe 9dfe 62bd c715 8a3b
00000360: 3209 46bd 1cce 9abd c026 87bb 93c0 cfbd
00000370: 7fee 12be c847 c4bd d74e 40bd 736b 253e
00000380: 8b32 af3d bf99 c43c a60f 1b3d ec28 1c3d
00000390: 24b9 883d 5c00 00be e0b6 85bd 7a63 7fbd
000003a0: 232e f03b 9a21 11be 63fd 62bd a457 d2bd
000003b0: d9f8 d23d 914c 513d fac4 923b 7d47 7fbd
000003c0: 2444 42bc 17c3 883d 8f36 21be 82d7 74bc
000003d0: 7795 a9bc e61d 53bd 24df 9abd e78a ab3d
000003e0: ee54 ad3d f666 02bd e0f7 eb3b a9c0 81bd
000003f0: d368 a13c 35ca ac3b aaf6 953d 49e0 083d
-0.066954285 -0.07201846 0.08758599 -0.0660302 0.017719803 -0.048613384 0.04856389 0.04892465
-0.091261424 -0.048325922 0.08222652 -0.031205691 0.04477961 -0.09155129 0.06915293 -0.015007249
-0.027396558 -0.060208526 -0.09989763 0.052356314 -0.022892006 0.08443054 -0.048090164 -0.0577526
0.06418951 -0.07729648 -0.05204364 0.0523034 0.09176671 0.035022464 0.07749065 0.07006825
0.037127253 0.031750575 0.023244048 0.008579128 0.11982522 0.11990782 0.022176696 -0.041380312
0.060054254 -0.12288372 0.0774467 0.058141712 0.05720898 -0.0477472 -0.099423215 0.11223899
-0.03365218 -0.0155442795 0.083579466 -0.12422294 -0.060913406 -0.077560976 0.039319936 -0.09913885
0.0565771 0.045801643 0.047735848 0.09904282 -0.034102816 -0.13161124 0.03725153 0.018939476
0.0057592583 -0.1232718 -0.035255812 -0.055223774 0.099884436 0.05969878 0.09319525 0.060273398
-0.04909714 -0.13868958 -0.11569571 -0.09422176 0.11239703 -0.014333574 0.16003709 -0.0100546535
-0.18038821 -0.01717647 0.0414383 0.20479657 -0.018322067 -0.1036634 -0.17918007 -0.08149015
0.1392903 -0.07101689 0.08915694 -0.052731358 -0.03418362 0.3503413 -0.053477883 0.09973915
-0.06209216 -0.29593933 -0.047480293 0.079588756 -0.009549446 0.06611008 -0.094411634 -0.09989825
-0.12910105 -0.021025708 -0.018799555 -0.06024118 -0.021811806 -0.19471852 -0.016233517 -0.01629552
0.06007789 0.1939054 0.097226225 -0.015962169 -0.0036505654 0.055763908 -0.12156167 0.11200439
0.004871372 0.15416491 0.10536613 -0.05026633 -0.060830083 -0.08270943 -0.001210567 0.11166595
-0.08357725 0.057588167 -0.061330456 0.030144284 -0.05800261 -0.0175898 0.07664935 0.03410618
-0.014844739 -0.01660293 -0.07743337 -0.001980855 -0.014641822 0.07102709 0.047978587 -0.1139353
0.012767585 -0.072504774 0.032099437 -0.07254622 0.05001294 -0.102570325 0.083001696 0.1309101
-0.0018899086 -0.0881623 -0.022112655 0.08297192 0.10349999 -0.037712514 0.083282106 -0.019575082
-0.10264657 -0.0019145503 0.062278867 0.11757811 -0.14579995 -0.15438423 -0.026075335 -0.04908288
0.042432964 0.05173839 0.009857475 -0.06958737 -0.025539977 -0.1490816 -0.10093075 -0.016849829
0.10276591 0.02624685 0.018159423 -0.09269584 -0.067170106 -0.07293565 0.12006914 0.092368454
-0.08550305 0.07896317 0.08422249 -0.0395818 0.036764793 -0.08270744 -0.1691755 -0.015835425
0.06957433 -0.062698014 -0.18092388 -0.00081673654 -0.063534714 0.014125802 -0.037747175 -0.15065634
0.08428776 -0.071224704 -0.032301452 0.105703115 0.079426914 -0.08397414 -0.1175772 -0.06475749
0.0225735 0.03323838 0.048532646 -0.099350885 -0.0904791 -0.14010623 -0.0554186 0.004214022
-0.048348613 -0.075588435 -0.0041244924 -0.101441525 -0.14348792 -0.09584004 -0.046950188 0.1615427
0.08554562 0.023999093 0.03785672 0.038124964 0.06675938 -0.12500137 -0.06529021 -0.062350728
0.0073297187 -0.14172974 -0.05541743 -0.102706224 0.1030137 0.05109841 0.004479048 -0.062324036
-0.011857066 0.066778354 -0.15743469 -0.014943959 -0.020701153 -0.051542185 -0.07562092 0.08376103
0.08463465 -0.031836472 0.00720118 -0.06335575 0.019703304 0.0052731284 0.07322438 0.03341702

8.bias f4 [4]
00000000: 9017 01bd 4e26 ff3a 1cd4 dabd 84eb b23c
-0.03151661 0.0019466372 -0.10684988 0.021840818

9.weight f4 [4]
00000000: 3e5b 7b3f b54d 843f e1f4 783f a3ea 7e3f
0.981861 1.0336214 0.97248656 0.9957678

9.bias f4 [4]
00000000: 14bb 983c 1c03 fdbd 146b 04be 392a 74bd
0.018643893 -0.12354109 -0.12931472 -0.05961058

9.running_mean f4 [4]
00000000: 54ae 0c3d 7357 91be f164 5abf 1fa1 ddbe
0.03434594 -0.2838703 -0.85310274 -0.43286988

9.running_var f4 [4]
00000000: 039b cc3e ad99 253e 9d50 f13d 6d02 ef3d
0.39962015 0.16171904 0.11782954 0.116703846

12.weight f4 [2, 4, 3, 3]
00000000: 0b3c 08bd cc6d 5abd f88e 1cbd 330a 09bd
00000010: 8407 6bbe 3e9f b4bd d173 3cbd c3bd b8bb
00000020: 2ea7 e43d 523b 4abd 966b a33e 792b e8bc
00000030: 562c a9bd 4ef6 123e cae4 abbd 4d65 3dbe
00000040: aa2b 2abe e15e 40be 5e53 aa3d cd05 41ba
00000050: 503d a6bd df59 27bd 4a1f 99bd 48e3 86bb
00000060: 5006 d5bc b543 013e 21e6 123e aea4 5ebc
00000070: bf31 a13d 0550 9ebd 3fbc bcbd 508a dbbc
00000080: 2b99 bfbd c7be 86bb 68b8 653d 44ad c4bd
00000090: 1ddf abbd 6583 4c3e f6dd 7dbd 7852 d93d
000000a0: 72e6 87bd 6d51 003e 4868 11be f5c2 b3bd
000000b0: 5184 b53d cb46 a7bd 541f 233e 0f3b 7f3e
000000c0: fbe3 a53d bbae 62bd 4d32 36bc 840a 80bd
000000d0: 6b9a 223d 09d0 50be 4abf 4ebe 902f 203e
000000e0: 7d74 14be 4baa 313e 382d 6fbd 75e2 073d
000000f0: 2196 733e 94e9 e2bd fbaa 04bb 1eea edbc
00000100: 0a9d 4e3e 5bdc 51be ab35 5fbd f587 52be
00000110: 9122 003d 40f4 ec3d 62a2 a1bd 208e 9f3c
-0.033260386 -0.053327367 -0.038222283 -0.033456992 -0.22952086 -0.088194355 -0.04600889 -0.0056378557
0.111646995 -0.04937298 0.3191802 -0.028341042 -0.082604095 0.1435177 -0.083932474 -0.18495674
-0.16618219 -0.18786193 0.08316682 -0.000736323 -0.08117163 -0.040857192 -0.07476671 -0.0041164495
-0.026003987 0.12623484 0.143456 -0.013589067 0.078708164 -0.07730106 -0.092155926 -0.026799351
-0.09355386 -0.004112098 0.056084067 -0.0960336 -0.08392165 0.19971998 -0.061979257 0.10611433
-0.06635751 0.12531061 -0.14199936 -0.087774195 0.08863128 -0.081677996 0.1592992 0.24924873
0.081001244 -0.055342417 -0.011120391 -0.06252006 0.039698046 -0.20391859 -0.20190158 0.15643144
-0.14497562 0.17350118 -0.058392733 0.03317495 0.23787738 -0.11079708 -0.0020243514 -0.0290423
0.20177093 -0.20494215 -0.05449454 -0.20559676 0.031282965 0.115700245 -0.078923 0.01947695

12.bias f4 [2]
00000000: d105 4cbc 196b 0e3e
-0.012452559 0.13908042

13.weight f4 [2]
00000000: a6d7 ae3f fbf3 1740
1.3659561 2.3742664

13.bias f4 [2]
00000000: 12d5 a43d e477 eb3e
0.080484524 0.45989907

13.running_mean f4 [2]
00000000: 39ea 0dbf 7d31 4d3e
-0.5543552 0.2003841

13.running_var f4 [2]
00000000: eba1 113e 9345 c03d
0.14221923 0.0938827

16.weight f4 [1, 1250]
00000000: 0723 2bbb 6301 3c3c 7289 c5bc eeea b7bc
00000010: 3bfd 7c3c a23e 593c 702d 183c f4c1 eebc
00000020: 16c2 743c 8f70 20bc 4d47 613c 5227 8f3c
00000030: 43a4 82bb 8382 9abc 1cdc 9f3c e6d6 b2bc
00000040: 2fa8 3a3c 8d27 0cbd 9ef7 82bc 3812 02bd
00000050: cf07 a2bc 6950 a13b cc1d e0bc 8549 e1bc
00000060: fd77 b23b 9237 53bb 79e4 4bba 35ea 8abc
00000070: 325a 0e3c b6de 1fbc 3f20 cd3c ab29 cabb
00000080: 1ae1 18bc 6f97 b8bc 902d 9ebc 8181 1c3c
00000090: 060e 843c 2686 863b 1cb7 92bc 8039 c63c
000000a0: f077 103c d139 2cbc 2852 30bc 1f9f 2bbb
000000b0: 2b2a 653c 82c1 fd3b 214b 453c 775d a23b
000000c0: fd01 173d a2d7 2cbd 8b23 8dbc e93f 69bc
000000d0: 151a c3bc f8be 9abc 24aa d1bc 588b e4ba
000000e0: 1b9c 9339 8278 f0bb b922 9ebc 0b2c d23c
000000f0: 6fda 18bc 70d0 5c3c c188 a03c d83f 96bc
00000100: 84a5 67bb fb35 863c d695 e03c 260b 65bb
00000110: 9cbb a73c 94b6 b5bc 368c 96bc f889 be3c
00000120: 464c aaba a54c f03c eff8 e5bb 4484 82bc
00000130: 5ce3 b13c 138a c83c f612 643c c3ce f5bc
00000140: 0b4f b43c 7fd3 10bc bc20 9b3d 569f 263d
00000150: 9cef 9e3d 17c3 fd38 6213 64bc 63d4 adbd
00000160: 53ce 4dbc 02a6 cebc 92d8 68bd ae79 df3a
00000170: 2ae6 74bc dce1 5bbd 34c3 babd ca2d e8bc
00000180: f53c 08bd 2c91 0d3c 1cbb b53c 7497 65bb
00000190: 1760 b43c 16f5 73bc 8b9a 3e3b 9bd5 01bc
000001a0: 3d60 d8bc 4a4b f93d 675e 073d c2be ad3d
000001b0: 4fbe a2bc 239d aa3d f8b3 8fbc 79c8 2f3d
000001c0: cae8 b5bd c43b 90bd 292a e0bc 6873 83bd
000001d0: ae80 a4bd 2896 d1bc f08c 05be a943 a9bc
000001e0: 2d21 c2bb 363f b1bb 1134 9e3b bd9e 80bc
000001f0: e3de ceb9 5b19 e7bc 7cbf fcbc b72a 6dbb
00000200: d72e 863d f4b3 68bc 59f2 363e bc99 343d
00000210: f4c4 a23d bb74 b0bb 95c2 983c b089 0dbd
00000220: 568a 463e 3666 42bd 25e3 74bd 9143 32bd
00000230: 5cd2 25bc 4c2e 96bd 003a 123d 532f 89bd
00000240: fb66 a83d 1a18 823d 853f f53d 3a67 203d
00000250: 17f0 443c da1d 88bc 4e0e b23b e52a 8e3c
00000260: 035e 79bc f24d 403e 2c7d 34bc 3ef8 ed3d
00000270: 8a89 173b f10a 943d c15f 413e 9814 ab3d
00000280: b0cd fcbb ad2b 6d3d 061b 09bd 6141 01bd
00000290: 1bba 08bd 423f be3c f577 733c 3dff 653d
000002a0: 1e2d 793d b897 63ba 62ab cabc 4913 303d
000002b0: 8c9c 4cbd 2c51 7d3d f655 75bc 8c00 a13b
000002c0: aeec 793c 6275 1fbd 793a 2a3d 4390 24be
000002d0: a7a1 e13d 0eaa 613d fd3c e73a 5324 9c3d
000002e0: 9082 1f3c 63f0 33bd 751b 35bd 9b65 c2bd
000002f0: 05c8 49bd 29f5 58bc fa20 d73d d0e8 1b3d
00000300: 9c6e 59bd 32da 86bd 1d4b 9cbd df06 93bd
00000310: 2315 f33b 0fd4 a4bd 4774 5e3c d208 363c
00000320: f89b 313b f5e6 afbc 2e27 47bd 6157 cabc
00000330: 69e0 f7bd a6dd 3b3d 87f9 3fbd 3c0a 1ebd
00000340: 8b7d e63c 724f 8abd 1847 113c faf4 3cbc
00000350: 1762 52bc 4446 0a3d 1872 4d3d dfb8 033e
00000360: a67b 4f3d bf7c 36bd 9918 c73c e758 b53c
00000370: 1606 babd b7e3 723d ac85 c4bd fa14 d63c
00000380: f9bf 2e3c cbfe d6bc 6826 493c 1991 73bd
00000390: b873 f63b c7b3 04be c30b 8bba baf8 64bd
000003a0: a751 be3c 4d49 b43d abd7 86bd 220a 893c
000003b0: 4685 3abd b0e4 933c cbd1 fcba d949 0ebd
000003c0: 000d cbb9 1aa3 a2bd 9b86 653b 21c4 f33c
000003d0: 45ed 75bd 6a00 e7bc 672e 2e3d 5a3f 95bd
000003e0: 13b6 203d 29f5 45ba 96d5 c8bc 85f3 f1b9
000003f0: 55f7 44bd 4b38 7d3d 8263 6bbd d414 68bd
-0.0026113407 0.01147494 -0.02411339 -0.02245089 0.015441234 0.013259562 0.009288177 -0.029145218
0.014938852 -0.009792461 0.01374991 0.017474804 -0.0039868667 -0.018861061 0.019514136 -0.021830987
0.011392637 -0.034217406 -0.015987214 -0.031755656 -0.019779114 0.0049229157 -0.027357958 -0.027500877
0.0054464326 -0.0032229167 -0.00077778805 -0.016957382 0.008688496 -0.009757688 0.02503979 -0.006169518
-0.009331012 -0.022533147 -0.019308835 0.0095523605 0.016119968 0.004105347 -0.017909579 0.02419734
0.008817658 -0.010511831 -0.010761775 -0.0026187373 0.013987104 0.007744015 0.012041838 0.0049549895
0.03686713 -0.04219783 -0.017228862 -0.014236429 -0.023816148 -0.01888989 -0.025593825 -0.0017436547
0.00028154333 -0.0073385844 -0.019303666 0.025655767 -0.009329422 0.01347743 0.01959646 -0.01834099
-0.0035346458 0.016383162 0.027415197 -0.0034949272 0.020475201 -0.022181787 -0.018377405 0.023259148
-0.0012992702 0.029333422 -0.0070182006 -0.01593221 0.021714859 0.024479901 0.013920536 -0.030005818
0.022010347 -0.008839487 0.07574603 0.0406793 0.077605456 0.000121003184 -0.013920637 -0.08487775
-0.012561399 -0.025225643 -0.056847163 0.0017049813 -0.0149474535 -0.053682193 -0.09119263 -0.028342146
-0.03326126 0.008640569 0.022183947 -0.00350329 0.022018475 -0.014889976 0.0029083814 -0.007924463
-0.026413077 0.121725634 0.033049013 0.0848365 -0.019866137 0.08330753 -0.01754187 0.042915795
-0.088822916 -0.070426494 -0.027363854 -0.06418496 -0.08032356 -0.025584295 -0.13042045 -0.020662146
-0.005924365 -0.0054091467 0.004827984 -0.015700692 -0.00039457445 -0.028210333 -0.030853026 -0.003618879
0.06551903 -0.01420306 0.17865886 0.044091925 0.07947722 -0.005385009 0.018647471 -0.034555137
0.19388708 -0.047460757 -0.059786934 -0.043521468 -0.010120954 -0.07333049 0.035699844 -0.066984795
0.08222767 0.06352253 0.11975006 0.039160945 0.0120201325 -0.016615797 0.005433834 0.017354438
-0.015220168 0.18779734 -0.011016171 0.11619614 0.002312275 0.072286494 0.18884183 0.08353537
-0.0077149495 0.05790298 -0.033473037 -0.03155649 -0.03338061 0.023223523 0.014860143 0.056151617
0.060834043 -0.00086819706 -0.024739925 0.04298714 -0.049953982 0.06184499 -0.014974108 0.0049133953
0.015254183 -0.038930304 0.04155967 -0.16070656 0.11017161 0.055093817 0.0017642077 0.07624116
0.009735718 -0.043930423 -0.04421564 -0.09492036 -0.04926302 -0.0132420445 0.10504337 0.038063824
-0.053084 -0.06584586 -0.07631514 -0.07179045 0.007418291 -0.080482595 0.013577527 0.011110501
0.0027101021 -0.021472434 -0.04862135 -0.024699869 -0.1210335 0.045865677 -0.046868827 -0.03858398
0.028136035 -0.06753434 0.008867048 -0.011533016 -0.012840769 0.033758417 0.050157636 0.12863491
0.05065503 -0.04455256 0.024303721 0.022137119 -0.09083192 0.059299197 -0.095958084 0.02613305
0.010665887 -0.026244542 0.012277223 -0.059464548 0.007521119 -0.12959205 -0.0010608364 -0.055901267
0.023232294 0.088030435 -0.06584104 0.016728465 -0.045537256 0.018053383 -0.0019288597 -0.034738395
-0.00038728863 -0.079412654 0.0035022858 0.029756607 -0.06004073 -0.02819844 0.04252472 -0.07287474
0.03923614 -0.00075514853 -0.024515908 -0.00046148538 -0.048087437 0.061821263 -0.057467945 -0.05666049
